…
700/700 [==============================] - 1s 1ms/step - loss: 0.0067 - accuracy: 0.9972 - recall: 1.0000 - auc: 0.9139
Epoch 49/50
700/700 [==============================] - 1s 1ms/step - loss: 0.0075 - accuracy: 0.9971 - recall: 1.0000 - auc: 0.9213
Epoch 50/50
700/700 [==============================] - 1s 1ms/step - loss: 0.0073 - accuracy: 0.9969 - recall: 1.0000 - auc: 0.9260
Model: "sequential"
_________________________________________________________________
 Layer (type)                Output Shape              Param #   
=================================================================
 dense (Dense)               (None, 16)                80        
                                                                 
 dense_1 (Dense)             (None, 16)                272       
                                                                 
 dense_2 (Dense)             (None, 16)                272       
                                                                 
 dense_3 (Dense)             (None, 16)                272       
                                                                 
 dense_4 (Dense)             (None, 16)                272       
                                                                 
 dense_5 (Dense)             (None, 16)                272       
                                                                 
 dense_6 (Dense)             (None, 16)                272       
                                                                 
 dense_7 (Dense)             (None, 16)                272       
                                                                 
 dense_8 (Dense)             (None, 16)                272       
                                                                 
 dense_9 (Dense)             (None, 16)                272       
                                                                 
 flatten (Flatten)           (None, 16)                0         
                                                                 
 dense_10 (Dense)            (None, 1)                 17        
                                                                 
=================================================================
Total params: 2,545
Trainable params: 2,545
Non-trainable params: 0
_________________________________________________________________